examples/rust-examples/tflite-inference-native-mnist/input/MNISTnet_uint8_quant.tflite (tflite, 18652 bytes, 6 tensors)

MNISTnet/Logits/Conv2d_1c_1x1/weights_quant/FakeQuantWithMinMaxVars u1 [10, 1, 1, 128] scale=0.01016565 zero_point=104
00000000: 7f5b 3081 755c 5b3e 76aa 3f5c 6abf 4fc8
00000010: 5b88 9a8c 6c70 7a92 bd27 5d7a 2785 413e
00000020: 7192 9f82 c15a 5e75 577f 3a87 5140 9e45
00000030: 21be 2053 706f 291d 9e1c afc0 4584 952a
00000040: a128 125d 7878 51ba 2719 543d 143f 5715
00000050: 973f b479 5925 585d 9a70 9f4d 4c74 3c1a
00000060: 9d41 4253 727e 6f64 516b dc7f 408c 406b
00000070: 4533 2caf 58c8 9a1a 8f79 3b6f 5da2 029c
00000080: b28d 7e46 a2de 3e49 7726 7033 6560 589a
00000090: 67a5 513d 1d4e 996f 92b5 1d8a 3958 c546
000000a0: 7b5f 4d2a 5c6f 6120 9640 1f26 7261 6b8d
000000b0: 3659 5429 25ce 4968 7577 7565 a59e 346e
000000c0: 4f9b 4c36 692c 655b 7f68 4e9a 256c 6fb8
000000d0: 6557 4993 6d7c 224d 3e2b a849 a66d 5d64
000000e0: 6f91 413c c76b 5e58 523d a528 6e60 403a
000000f0: 50c5 69a7 8a51 47c2 2a1e 6f8f bd41 4670
0.23380996 -0.13215345 -0.56927645 0.25414127 0.13215345 -0.121987805 -0.13215345 -0.4269573
0.14231911 0.67093295 -0.41679168 -0.121987805 0.0203313 0.8844116 -0.25414127 0.97590244
-0.13215345 0.3253008 0.50828254 0.3659634 0.0406626 0.0813252 0.1829817 0.4269573
0.8640803 -0.66076726 -0.11182216 0.1829817 -0.66076726 0.29480386 -0.39646035 -0.4269573
0.09149085 0.4269573 0.55911076 0.2643069 0.9047429 -0.14231911 -0.101656504 0.13215345
-0.17281605 0.23380996 -0.46761993 0.31513515 -0.23380996 -0.40662602 0.5489451 -0.35579777
-0.72176117 0.87424594 -0.7319268 -0.21347865 0.0813252 0.07115956 -0.640436 -0.76242375
0.5489451 -0.77258945 0.72176117 0.89457726 -0.35579777 0.28463823 0.45745426 -0.6302703
0.5794421 -0.6506016 -0.87424594 -0.11182216 0.1626504 0.1626504 -0.23380996 0.83358335
-0.66076726 -0.8030864 -0.20331301 -0.43712297 -0.8539146 -0.41679168 -0.17281605 -0.843749
0.47778556 -0.41679168 0.77258945 0.17281605 -0.15248476 -0.6810986 -0.1626504 -0.11182216
0.50828254 0.0813252 0.55911076 -0.27447256 -0.28463823 0.121987805 -0.44728863 -0.7929207
0.5387795 -0.39646035 -0.38629472 -0.21347865 0.101656504 0.22364432 0.07115956 -0.0406626
-0.23380996 0.030496951 1.1792154 0.23380996 -0.40662602 0.3659634 -0.40662602 0.030496951
-0.35579777 -0.5387795 -0.60993904 0.72176117 -0.1626504 0.97590244 0.50828254 -0.7929207
0.39646035 0.17281605 -0.45745426 0.07115956 -0.11182216 0.5896077 -1.0368963 0.5286138
0.7522581 0.37612906 0.22364432 -0.3456321 0.5896077 1.1995467 -0.4269573 -0.31513515
0.15248476 -0.67093295 0.0813252 -0.5387795 -0.030496951 -0.0813252 -0.1626504 0.50828254
-0.01016565 0.6201047 -0.23380996 -0.43712297 -0.76242375 -0.2643069 0.49811688 0.07115956
0.4269573 0.7827551 -0.76242375 0.3456321 -0.47778556 -0.1626504 0.9454055 -0.3456321
0.19314736 -0.09149085 -0.27447256 -0.6302703 -0.121987805 0.07115956 -0.07115956 -0.7319268
0.46761993 -0.40662602 -0.7420925 -0.67093295 0.101656504 -0.07115956 0.030496951 0.37612906
-0.50828254 -0.15248476 -0.20331301 -0.640436 -0.6810986 1.0368963 -0.31513515 0.0
0.13215345 0.15248476 0.13215345 -0.030496951 0.6201047 0.5489451 -0.5286138 0.060993902
-0.25414127 0.5184482 -0.28463823 -0.50828254 0.01016565 -0.60993904 -0.030496951 -0.13215345
0.23380996 0.0 -0.2643069 0.50828254 -0.6810986 0.0406626 0.07115956 0.81325203
-0.030496951 -0.17281605 -0.31513515 0.43712297 0.050828252 0.20331301 -0.71159554 -0.27447256
-0.4269573 -0.6201047 0.6506016 -0.31513515 0.6302703 0.050828252 -0.11182216 -0.0406626
0.07115956 0.41679168 -0.39646035 -0.44728863 0.9657368 0.030496951 -0.101656504 -0.1626504
-0.22364432 -0.43712297 0.6201047 -0.6506016 0.060993902 -0.0813252 -0.40662602 -0.46761993
-0.24397561 0.9454055 0.01016565 0.640436 0.3456321 -0.23380996 -0.33546647 0.9149085
-0.6302703 -0.7522581 0.07115956 0.39646035 0.8640803 -0.39646035 -0.3456321 0.0813252

MNISTnet/MNISTnet/Conv2d_0/weights_quant/FakeQuantWithMinMaxVars u1 [1, 3, 3, 32] scale=0.009352336 zero_point=119
00000000: ce58 4843 7f94 a97c 2f4e 9698 9177 9a9f
00000010: 876b a467 6999 6588 9f50 5800 5759 4e4e
00000020: 7071 6a92 3843 9884 0233 8a8b 92cc bda7
00000030: 3d0c 87cc 349a 43dc c57d 7d6a 1248 709e
00000040: 194c 80a9 4d0d 937e 1f48 a079 9de2 557c
00000050: 4470 67a6 638e 48b2 be89 987a 2898 72ba
00000060: a375 5d53 6db5 4891 a686 8093 c74b a775
00000070: ae60 bf2c 668c 0157 7416 3290 7b78 209f
00000080: ff6e 4ca5 9da9 8b9e 7688 8587 a28e 942a
00000090: 745d 9c9a 67a8 7273 9c8f 80ee 7c49 95c8
000000a0: 823d 3cc1 7e58 6f9a 703c a291 5a81 3e26
000000b0: 0a77 73a9 7e88 92a2 87c9 abc3 a855 aa9b
000000c0: 0b57 737b b0c2 378c bb96 9491 5a2e b5a1
000000d0: af84 801d 3677 7c2e 446f 4e5a ca80 1247
000000e0: 8c4b 8e7c c99c 2e87 b785 7f7e 1c75 6379
000000f0: d2bd 692b 5967 9736 45b0 2582 b25b 8375
0.81365323 -0.28992242 -0.4395598 -0.48632145 0.074818686 0.27121773 0.4676168 0.046761677
-0.67336816 -0.38344577 0.28992242 0.30862707 0.24316072 0.0 0.32733175 0.3740934
0.14963737 -0.11222803 0.4208551 -0.14963737 -0.1309327 0.31797943 -0.16834204 0.15898971
0.3740934 -0.3647411 -0.28992242 -1.1129279 -0.29927474 -0.28057006 -0.38344577 -0.38344577
-0.06546635 -0.056114014 -0.12158036 0.25251305 -0.58919716 -0.48632145 0.30862707 0.12158036
-1.0942233 -0.63595885 0.17769438 0.1870467 0.25251305 0.7949485 0.6546635 0.4489121
-0.54243547 -1.0006999 0.14963737 0.7949485 -0.62660646 0.32733175 -0.48632145 0.9445859
0.7294822 0.056114014 0.056114014 -0.12158036 -0.9445859 -0.4395598 -0.06546635 0.3647411
-0.8791196 -0.40215042 0.08417102 0.4676168 -0.3927981 -0.9913476 0.2618654 0.06546635
-0.82300556 -0.4395598 0.38344577 0.018704671 0.35538876 1.0006999 -0.31797943 0.046761677
-0.47696912 -0.06546635 -0.14963737 0.4395598 -0.1870467 0.21510372 -0.4395598 0.5517878
0.6640158 0.16834204 0.30862707 0.028057007 -0.7388345 0.30862707 -0.046761677 0.62660646
0.41150278 -0.018704671 -0.24316072 -0.33668408 -0.09352335 0.57984483 -0.4395598 0.24316072
0.4395598 0.14028503 0.08417102 0.2618654 0.7481868 -0.41150278 0.4489121 -0.018704671
0.5143785 -0.21510372 0.67336816 -0.7014252 -0.15898971 0.19639905 -1.1035756 -0.29927474
-0.028057007 -0.90717655 -0.6453112 0.2338084 0.037409343 0.009352336 -0.81365323 0.3740934
1.2719177 -0.08417102 -0.40215042 0.43020743 0.35538876 0.4676168 0.1870467 0.3647411
-0.009352336 0.15898971 0.1309327 0.14963737 0.40215042 0.21510372 0.27121773 -0.72012985
-0.028057007 -0.24316072 0.34603643 0.32733175 -0.14963737 0.45826444 -0.046761677 -0.037409343
0.34603643 0.22445606 0.08417102 1.1129279 0.046761677 -0.43020743 0.28057006 0.7575392
0.102875695 -0.54243547 -0.5517878 0.69207287 0.06546635 -0.28992242 -0.074818686 0.32733175
-0.06546635 -0.5517878 0.40215042 0.24316072 -0.27121773 0.09352335 -0.53308314 -0.7575392
-1.0194046 0.0 -0.037409343 0.4676168 0.06546635 0.15898971 0.25251305 0.40215042
0.14963737 0.76689154 0.48632145 0.7107775 0.45826444 -0.31797943 0.47696912 0.33668408
-1.0100522 -0.29927474 -0.037409343 0.037409343 0.53308314 0.7014252 -0.5985495 0.19639905
0.63595885 0.28992242 0.27121773 0.24316072 -0.27121773 -0.6827205 0.57984483 0.3927981
0.5237308 0.12158036 0.08417102 -0.8417102 -0.6079018 0.0 0.046761677 -0.6827205
-0.47696912 -0.074818686 -0.38344577 -0.27121773 0.77624387 0.08417102 -0.9445859 -0.4489121
0.19639905 -0.41150278 0.21510372 0.046761677 0.76689154 0.34603643 -0.6827205 0.14963737
0.5985495 0.1309327 0.074818686 0.06546635 -0.85106254 -0.018704671 -0.1870467 0.018704671
0.85106254 0.6546635 -0.1309327 -0.7107775 -0.28057006 -0.14963737 0.29927474 -0.6079018
-0.4676168 0.53308314 -0.76689154 0.102875695 0.5517878 -0.2618654 0.11222803 -0.018704671

MNISTnet/MNISTnet/Conv2d_1_depthwise/weights_quant/FakeQuantWithMinMaxVars u1 [1, 3, 3, 32] scale=0.018357974 zero_point=133
00000000: 9e66 0f7e 9e92 8f88 61ad 6242 af68 6c62
00000010: 77a1 8bb2 4855 6868 8a77 9b6d 68a8 bb7f
00000020: a8a3 5087 9b94 99a8 79be 6374 9c52 8873
00000030: 698b 8c9d 74bd 6a74 8e96 6a85 a7be 8873
00000040: 5111 b3a5 7da4 92a0 88fb 5e7c 7d53 9465
00000050: 796b 93a8 9b63 5e9e 979f 9b95 9fb7 5e86
00000060: 476a 8f67 998b 674f 5b6b 8c79 4c69 6a91
00000070: 908b 88a0 6d64 7588 8ab3 a56e 6798 9493
00000080: 91c8 9572 8795 588a 873d b483 6592 70a5
00000090: 816e 7b89 89c9 8080 8b92 6183 85ac 8da4
000000a0: 9365 9c9a 858d 6962 6bc1 6f66 6ba5 8bbb
000000b0: 7452 6463 b75a 9b3e 8f5e 5aa9 7e8f 65ad
000000c0: 8e4d 608a 7269 bd75 5b4f 74c4 8184 7768
000000d0: b37c a95a 448e db74 8d4d ff76 6675 845a
000000e0: 738c 9f86 6b81 a378 7c61 6e99 8699 a35b
000000f0: c383 9756 7080 b69a 9661 be3c 7a53 926d
0.45894933 -0.56909716 -2.166241 -0.12850581 0.45894933 0.23865366 0.18357974 0.05507392
-0.66088706 0.734319 -0.6425291 -1.2299843 0.7710349 -0.53238124 -0.45894933 -0.6425291
-0.25701162 0.51402324 0.11014784 0.8261088 -1.1198363 -0.88118273 -0.53238124 -0.53238124
0.09178987 -0.25701162 0.4038754 -0.44059137 -0.53238124 0.6425291 0.99133056 -0.11014784
0.6425291 0.5507392 -0.9729726 0.036715947 0.4038754 0.2753696 0.3671595 0.6425291
-0.22029568 1.0464045 -0.6241711 -0.31208554 0.4222334 -0.93625665 0.05507392 -0.33044353
-0.51402324 0.11014784 0.12850581 0.44059137 -0.31208554 1.0280465 -0.49566528 -0.31208554
0.16522177 0.31208554 -0.49566528 0.0 0.6241711 1.0464045 0.05507392 -0.33044353
-0.95461464 -2.129525 0.8444668 0.58745515 -0.14686379 0.56909716 0.23865366 0.49566528
0.05507392 2.166241 -0.715961 -0.16522177 -0.14686379 -0.91789865 0.2753696 -0.58745515
-0.22029568 -0.47730732 0.25701162 0.6425291 0.4038754 -0.6241711 -0.715961 0.45894933
0.33044353 0.47730732 0.4038754 0.29372758 0.47730732 0.91789865 -0.715961 0.018357974
-1.1381943 -0.49566528 0.18357974 -0.5507392 0.3671595 0.11014784 -0.5507392 -0.99133056
-0.7710349 -0.47730732 0.12850581 -0.22029568 -1.0464045 -0.51402324 -0.49566528 0.22029568
0.2019377 0.11014784 0.05507392 0.49566528 -0.44059137 -0.60581315 -0.29372758 0.05507392
0.09178987 0.8444668 0.58745515 -0.4222334 -0.5507392 0.3488015 0.2753696 0.25701162
0.22029568 1.2299843 0.29372758 -0.3488015 0.036715947 0.29372758 -0.8261088 0.09178987
0.036715947 -1.3217741 0.86282474 -0.036715947 -0.58745515 0.23865366 -0.38551745 0.58745515
-0.073431894 -0.4222334 -0.18357974 0.073431894 0.073431894 1.2483422 -0.09178987 -0.09178987
0.11014784 0.23865366 -0.66088706 -0.036715947 0.0 0.715961 0.14686379 0.56909716
0.25701162 -0.58745515 0.4222334 0.38551745 0.0 0.14686379 -0.51402324 -0.6425291
-0.47730732 1.1014785 -0.4038754 -0.56909716 -0.47730732 0.58745515 0.11014784 0.99133056
-0.31208554 -0.93625665 -0.60581315 -0.6241711 0.91789865 -0.7893929 0.4038754 -1.3034161
0.18357974 -0.715961 -0.7893929 0.66088706 -0.12850581 0.18357974 -0.58745515 0.734319
0.16522177 -1.0280465 -0.679245 0.09178987 -0.3488015 -0.51402324 1.0280465 -0.29372758
-0.7710349 -0.99133056 -0.31208554 1.1565523 -0.073431894 -0.018357974 -0.25701162 -0.53238124
0.8444668 -0.16522177 0.66088706 -0.7893929 -1.1932683 0.16522177 1.5787858 -0.31208554
0.14686379 -1.0280465 2.2396727 -0.2753696 -0.56909716 -0.29372758 -0.018357974 -0.7893929
-0.33044353 0.12850581 0.47730732 0.018357974 -0.47730732 -0.073431894 0.5507392 -0.23865366
-0.16522177 -0.66088706 -0.4222334 0.3671595 0.018357974 0.3671595 0.5507392 -0.7710349
1.1381943 -0.036715947 0.33044353 -0.86282474 -0.38551745 -0.09178987 0.8995407 0.38551745
0.31208554 -0.66088706 1.0464045 -1.3401321 -0.2019377 -0.91789865 0.23865366 -0.44059137

MNISTnet/MNISTnet/Conv2d_1_pointwise/weights_quant/FakeQuantWithMinMaxVars u1 [64, 1, 1, 32] scale=0.008225346 zero_point=142
00000000: 7bae 7b34 7963 666d af86 77a2 9cdc b49c
00000010: 7b7c 545a 5e7a b187 978a 5a79 74c5 8c80
00000020: 957c 8579 827e 90ae 9983 8f87 8d91 a185
00000030: 6f84 639f 809a b186 6cab a78e 9893 9984
00000040: a963 d7cd 8897 806f 947a 3c4c 7874 8b76
00000050: a496 a0aa 9669 4697 909e b39d c080 946b
00000060: 92c1 ad91 4d7f 7759 8187 bca0 9787 8292
00000070: 8172 a155 8ea2 7b58 4cad 5a71 988e c569
00000080: 8bae c89c 60c0 747b 519e 9a75 989a 6c73
00000090: a471 bf51 d78d 9b59 9692 8393 b783 c36f
000000a0: a695 7ac0 83f1 8fdb 967f 9c8b a45f 8dc8
000000b0: 99b5 2e91 b29b 4559 d76b 3058 8cb5 5ab6
000000c0: b98f 9199 bda0 84b7 a38a 90a7 ba64 498a
000000d0: bfc6 5fb0 a571 c8a2 82a8 2d92 7e99 9c86
000000e0: a8cb b091 8042 8c77 9560 625a 5792 a356
000000f0: 89a0 7f9c 6187 7da4 6d97 496b 6975 9966
-0.15628158 0.26321107 -0.15628158 -0.74028116 -0.17273226 -0.35368988 -0.32901382 -0.27143642
0.27143642 -0.06580277 -0.18918295 0.16450691 0.11515485 0.641577 0.31256315 0.11515485
-0.15628158 -0.14805622 -0.47707006 -0.42771798 -0.3948166 -0.16450691 0.2878871 -0.057577424
0.07402811 -0.032901384 -0.42771798 -0.17273226 -0.21385899 0.45239404 -0.016450692 -0.11515485
0.057577424 -0.14805622 -0.07402811 -0.17273226 -0.09870415 -0.13160554 0.016450692 0.26321107
0.09047881 -0.09047881 0.008225346 -0.057577424 -0.008225346 0.024676038 0.15628158 -0.07402811
-0.25498572 -0.082253456 -0.35368988 0.13983089 -0.11515485 0.09870415 0.2878871 -0.06580277
-0.27966177 0.23853503 0.20563366 0.0 0.082253456 0.041126728 0.09047881 -0.082253456
0.22208434 -0.35368988 0.6004503 0.5181968 -0.049352076 0.07402811 -0.11515485 -0.25498572
0.049352076 -0.16450691 -0.67447835 -0.54287285 -0.18095762 -0.21385899 -0.024676038 -0.1974083
0.18095762 0.06580277 0.14805622 0.2303097 0.06580277 -0.3043378 -0.5922249 0.07402811
0.016450692 0.13160554 0.3043378 0.12338019 0.4112673 -0.11515485 0.049352076 -0.2878871
0.032901384 0.41949263 0.25498572 0.024676038 -0.53464746 -0.12338019 -0.18918295 -0.43594334
-0.106929496 -0.057577424 0.3783659 0.14805622 0.07402811 -0.057577424 -0.09870415 0.032901384
-0.106929496 -0.2303097 0.15628158 -0.4688447 0.0 0.16450691 -0.15628158 -0.4441687
-0.54287285 0.25498572 -0.42771798 -0.23853503 0.082253456 0.0 0.45239404 -0.3043378
-0.024676038 0.26321107 0.47707006 0.11515485 -0.3783659 0.4112673 -0.21385899 -0.15628158
-0.5017461 0.13160554 0.09870415 -0.20563366 0.082253456 0.09870415 -0.27966177 -0.22208434
0.18095762 -0.23853503 0.40304196 -0.5017461 0.6004503 -0.008225346 0.106929496 -0.43594334
0.06580277 0.032901384 -0.09047881 0.041126728 0.33723918 -0.09047881 0.43594334 -0.25498572
0.1974083 0.057577424 -0.16450691 0.4112673 -0.09047881 0.81430924 0.008225346 0.6333516
0.06580277 -0.12338019 0.11515485 -0.024676038 0.18095762 -0.38659126 -0.008225346 0.47707006
0.09047881 0.3207885 -0.7896332 0.024676038 0.29611245 0.106929496 -0.6004503 -0.43594334
0.6004503 -0.2878871 -0.7731825 -0.4441687 -0.016450692 0.3207885 -0.42771798 0.32901382
0.35368988 0.008225346 0.024676038 0.09047881 0.38659126 0.14805622 -0.082253456 0.33723918
0.17273226 -0.032901384 0.016450692 0.20563366 0.36191523 -0.34546453 -0.5675489 -0.032901384
0.40304196 0.4606194 -0.38659126 0.27966177 0.18918295 -0.23853503 0.47707006 0.16450691
-0.09870415 0.21385899 -0.79785854 0.032901384 -0.13160554 0.09047881 0.11515485 -0.06580277
0.21385899 0.5017461 0.27966177 0.024676038 -0.11515485 -0.6251263 -0.016450692 -0.18918295
0.057577424 -0.3783659 -0.36191523 -0.42771798 -0.45239404 0.032901384 0.17273226 -0.4606194
-0.041126728 0.14805622 -0.12338019 0.11515485 -0.37014058 -0.057577424 -0.13983089 0.18095762
-0.27143642 0.07402811 -0.5675489 -0.2878871 -0.3043378 -0.20563366 0.09047881 -0.32901382

MNISTnet/MNISTnet/Conv2d_2_depthwise/weights_quant/FakeQuantWithMinMaxVars u1 [1, 3, 3, 64] scale=0.020837866 zero_point=88
00000000: 560c 3c6b 6f69 4f5f 6647 5f65 6263 a155
00000010: 6950 5377 373b 457a 7149 454b 6038 6a38
00000020: 2f5b 8061 6322 503d 776c 4774 547a 4759
00000030: 486f 6c4c 4967 2272 6d65 6c6e 5b53 6540
00000040: 38ff 2c72 6064 4261 6744 767e 7566 8a45
00000050: 884a 8469 6244 4f85 5e2a 4c50 6152 7348
00000060: 4552 775f 7045 4622 7664 2f79 6a83 4c57
00000070: 3373 6e57 6975 4960 6e68 6e75 4952 3b44
00000080: 14a1 3465 6064 3769 5f1d 6671 6b5f aa51
00000090: 832a 4c6d 7642 467b 314b 2665 6446 6e5a
000000a0: 2f16 6a61 6144 4741 7867 317e 6678 4b38
000000b0: 4876 633a 636c 6768 6370 5d71 004a 3a49
000000c0: 67cb 5e73 4e6a 6866 664a 7547 6e6c ce24
000000d0: 8232 8168 3d4c 367a 8f5b 4d6d 6f4d 6649
000000e0: 455b 7c70 665b 435e 7162 6e74 6073 5255
000000f0: 3c70 6f59 6a64 3b81 6524 7573 5a7a 8142
-0.04167573 -1.5836778 -0.5834602 0.39591944 0.4792709 0.35424373 -0.1875408 0.14586505
0.2917301 -0.35424373 0.14586505 0.27089226 0.20837866 0.22921652 1.5211642 -0.0625136
0.35424373 -0.16670293 -0.10418933 0.64597386 -0.68764955 -0.6042981 -0.39591944 0.70848745
0.5209466 -0.31256798 -0.39591944 -0.27089226 0.16670293 -0.6668117 0.3750816 -0.6668117
-0.8543525 0.0625136 0.83351463 0.1875408 0.22921652 -1.1252447 -0.16670293 -0.56262237
0.64597386 0.41675732 -0.35424373 0.5834602 -0.08335146 0.70848745 -0.35424373 0.020837866
-0.33340585 0.4792709 0.41675732 -0.2500544 -0.31256798 0.31256798 -1.1252447 0.5417845
0.4375952 0.27089226 0.41675732 0.45843303 0.0625136 -0.10418933 0.27089226 -0.5001088
-0.6668117 3.4799235 -0.91686606 0.5417845 0.16670293 0.2500544 -0.45843303 0.1875408
0.31256798 -0.41675732 0.62513596 0.7918389 0.6042981 0.2917301 1.0418932 -0.39591944
1.0002176 -0.2917301 0.91686606 0.35424373 0.20837866 -0.41675732 -0.1875408 0.93770397
0.1250272 -0.9585418 -0.2500544 -0.16670293 0.1875408 -0.1250272 0.56262237 -0.33340585
-0.39591944 -0.1250272 0.64597386 0.14586505 0.5001088 -0.39591944 -0.3750816 -1.1252447
0.62513596 0.2500544 -0.8543525 0.68764955 0.3750816 0.8960282 -0.2500544 -0.020837866
-0.77100104 0.56262237 0.45843303 -0.020837866 0.35424373 0.6042981 -0.31256798 0.16670293
0.45843303 0.33340585 0.45843303 0.6042981 -0.31256798 -0.1250272 -0.6042981 -0.41675732
-1.4169749 1.5211642 -0.7501632 0.27089226 0.16670293 0.2500544 -0.68764955 0.35424373
0.14586505 -1.2294341 0.2917301 0.5209466 0.39591944 0.14586505 1.708705 -0.14586505
0.8960282 -0.9585418 -0.2500544 0.4375952 0.62513596 -0.45843303 -0.3750816 0.7293253
-0.8126768 -0.27089226 -1.0418932 0.27089226 0.2500544 -0.3750816 0.45843303 0.04167573
-0.8543525 -1.3752991 0.3750816 0.1875408 0.1875408 -0.41675732 -0.35424373 -0.4792709
0.6668117 0.31256798 -0.8126768 0.7918389 0.2917301 0.6668117 -0.27089226 -0.6668117
-0.33340585 0.62513596 0.22921652 -0.62513596 0.22921652 0.41675732 0.31256798 0.33340585
0.22921652 0.5001088 0.10418933 0.5209466 -1.8337321 -0.2917301 -0.62513596 -0.31256798
0.31256798 2.3963547 0.1250272 0.56262237 -0.20837866 0.3750816 0.33340585 0.2917301
0.2917301 -0.2917301 0.6042981 -0.35424373 0.45843303 0.41675732 2.4588683 -1.083569
0.8751904 -0.7918389 0.8543525 0.33340585 -0.56262237 -0.2500544 -0.70848745 0.70848745
1.1460826 0.0625136 -0.22921652 0.4375952 0.4792709 -0.22921652 0.2917301 -0.31256798
-0.39591944 0.0625136 0.7501632 0.5001088 0.2917301 0.0625136 -0.4375952 0.1250272
0.5209466 0.20837866 0.45843303 0.5834602 0.16670293 0.56262237 -0.1250272 -0.0625136
-0.5834602 0.5001088 0.4792709 0.020837866 0.3750816 0.2500544 -0.6042981 0.8543525
0.27089226 -1.083569 0.6042981 0.56262237 0.04167573 0.70848745 0.8543525 -0.45843303

MNISTnet/MNISTnet/Conv2d_2_pointwise/weights_quant/FakeQuantWithMinMaxVars u1 [128, 1, 1, 64] scale=0.02047132 zero_point=119
00000000: 3a86 6b9a 8a69 6d7e 2b52 b475 8779 587b
00000010: 8445 b693 a0af 5d53 6989 6181 6271 5075
00000020: 7a84 519e 526d 548f 8ab0 998d 767a ad6b
00000030: 5572 1957 3789 9a65 7b64 7977 77a5 6758
00000040: af88 766a 2880 6463 676e 6c43 4689 9027
00000050: 71a4 708d 4066 84e0 9e82 5e80 b35b c073
00000060: 5d31 7b4d 7797 9a5f 6a67 6e5e 85aa 7769
00000070: 8aa1 8280 759b 5a67 883d ca90 a955 77a2
00000080: 4877 5586 68b8 837b 204c 3570 9aa7 8a64
00000090: 8255 6b5e 7f91 6b4f b27e 5469 756d 8585
000000a0: 86ad 7088 6b74 405d 767b 7979 4ab3 aa62
000000b0: 5e3e 272e 6644 7c3c 7886 3434 7090 3275
000000c0: 005c 5a9a 9572 984f 4594 67b9 5c84 88a9
000000d0: 2839 6a77 b249 6798 913e 4840 658e 4184
000000e0: 84a5 7ba6 5f92 a741 d88a a187 697a 756c
000000f0: 57b9 6384 4251 8352 64a5 7f4f 8291 4459
-1.2487504 0.30706978 -0.24565583 0.71649617 0.38895506 -0.28659847 -0.2047132 0.14329924
-1.5558202 -0.75743884 1.2487504 -0.04094264 0.3275411 0.04094264 -0.6346109 0.08188528
0.26612717 -1.023566 1.2896931 0.57319695 0.8393241 1.1463939 -0.53225434 -0.7369675
-0.28659847 0.36848375 -0.45036903 0.2047132 -0.42989773 -0.12282792 -0.79838145 -0.04094264
0.06141396 0.26612717 -0.7779101 0.79838145 -0.75743884 -0.2047132 -0.71649617 0.49131167
0.38895506 1.1668652 0.6960249 0.45036903 -0.02047132 0.06141396 1.1054512 -0.24565583
-0.6960249 -0.1023566 -1.924304 -0.6550822 -1.3101645 0.36848375 0.71649617 -0.36848375
0.08188528 -0.38895506 0.04094264 0.0 0.0 0.94168067 -0.3275411 -0.6346109
1.1463939 0.34801245 -0.02047132 -0.26612717 -1.6172342 0.18424188 -0.38895506 -0.4094264
-0.3275411 -0.18424188 -0.22518452 -1.0645087 -1.0030947 0.36848375 0.511783 -1.6377056
-0.12282792 0.9212094 -0.14329924 0.45036903 -1.1259226 -0.34801245 0.26612717 2.1494884
0.79838145 0.22518452 -0.511783 0.18424188 1.2282791 -0.57319695 1.4944063 -0.08188528
-0.53225434 -1.4329923 0.08188528 -0.85979545 0.0 0.6550822 0.71649617 -0.49131167
-0.26612717 -0.3275411 -0.18424188 -0.511783 0.28659847 1.0440373 0.0 -0.28659847
0.38895506 0.85979545 0.22518452 0.18424188 -0.04094264 0.7369675 -0.5936683 -0.3275411
0.34801245 -1.1873366 1.6991196 0.511783 1.023566 -0.6960249 0.0 0.8802667
-0.962152 0.0 -0.6960249 0.30706978 -0.30706978 1.3306358 0.24565583 0.08188528
-1.7810048 -0.8802667 -1.3511071 -0.14329924 0.71649617 0.98262334 0.38895506 -0.38895506
0.22518452 -0.6960249 -0.24565583 -0.511783 0.16377056 0.53225434 -0.24565583 -0.8188528
1.2078079 0.14329924 -0.71649617 -0.28659847 -0.04094264 -0.2047132 0.28659847 0.28659847
0.30706978 1.1054512 -0.14329924 0.34801245 -0.24565583 -0.06141396 -1.1259226 -0.53225434
-0.02047132 0.08188528 0.04094264 0.04094264 -0.9212094 1.2282791 1.0440373 -0.42989773
-0.511783 -1.1668652 -1.6377056 -1.4944063 -0.34801245 -1.0440373 0.1023566 -1.2078079
0.02047132 0.30706978 -1.3715785 -1.3715785 -0.14329924 0.511783 -1.412521 -0.04094264
-2.4360871 -0.5527256 -0.5936683 0.71649617 0.61413956 -0.1023566 0.67555356 -0.8188528
-1.023566 0.5936683 -0.3275411 1.3511071 -0.5527256 0.26612717 0.34801245 1.023566
-1.6172342 -1.2692218 -0.26612717 0.0 1.2078079 -0.94168067 -0.3275411 0.67555356
0.53225434 -1.1668652 -0.962152 -1.1259226 -0.36848375 0.47084033 -1.1054512 0.26612717
0.26612717 0.94168067 0.08188528 0.962152 -0.49131167 0.5527256 0.98262334 -1.1054512
1.985718 0.38895506 0.85979545 0.3275411 -0.28659847 0.06141396 -0.04094264 -0.22518452
-0.6550822 1.3511071 -0.4094264 0.26612717 -1.0849799 -0.7779101 0.24565583 -0.75743884
-0.38895506 0.94168067 0.16377056 -0.8188528 0.22518452 0.53225434 -1.0440373 -0.61413956
